fastai_home_win_model.pkl (torch, 213014 bytes, 64 tensors)

weight f4 [14, 7]
0	0xbc2be289	-0.010491022
1	0x3b8cd952	0.0042983675
2	0x3c68e122	0.014213832
3	0xbb5546ff	-0.0032543538
4	0x3bcf5b8c	0.006328052
5	0xbc5e049b	-0.013550903
6	0xbc223b58	-0.009901844
7	0xbc54eaec	-0.012995463
8	0x3c728a1a	0.014803434
9	0xbb461a0c	-0.0030227927
10	0xbc2f9b76	-0.010718217
11	0x3d002d4e	0.031293206
12	0x3ccd9bec	0.025098763
13	0xbcd5bd7d	-0.026091332
14	0xbb35fbdf	-0.0027768535
15	0x3c03a02e	0.008033795
16	0xbc2e4a25	-0.010637795
17	0xbc301098	-0.010746144
18	0xbc6261b4	-0.01381724
19	0xbcee1646	-0.029063355
20	0x3ca3e595	0.020006934
21	0xbbfafca2	-0.0076595107
22	0x3d2800f9	0.041016553
23	0xbc2aa8e3	-0.010416242
24	0x3bc9c9d3	0.0061580925
25	0xbb75e5bd	-0.0037520968
26	0xbc20c5f4	-0.009812821
27	0x3c653bdb	0.013991321
28	0xbaf3ade3	-0.0018591251
29	0xbbbe7b97	-0.005813073
30	0x3c3143c3	0.010819378
31	0x3cf549e6	0.029942464
32	0x3c8a6314	0.016892947
33	0x3ba91099	0.0051594493
34	0x3a8e2dad	0.0010847353
35	0xbc0041a7	-0.007828153
36	0xbd10d44e	-0.03535872
37	0xbbd07881	-0.0063620214
38	0x3c46d7ac	0.012136381
39	0xbb77d6ee	-0.0037817317
40	0xbcfdc633	-0.030978298
41	0x3b1ea061	0.002420448
42	0x3c2b59cb	0.01045842
43	0xbc0410ed	-0.008060676
44	0x3cfc1c59	0.030775236
45	0x39fb354d	0.00047914163
46	0x3b00f6fd	0.0019678466
47	0x3c3041d4	0.010757882
48	0xbc498f91	-0.012302295
49	0xbce55e08	-0.02799894
50	0xbc2c81b1	-0.010528968
51	0xbb954a8a	-0.004556005
52	0x3bca648e	0.006176538
53	0xbbe25909	-0.0069075865
54	0x3b732a6c	0.0037104143
55	0x3c4eaed9	0.012614929
56	0xbc26a1b2	-0.010170387
57	0x3b022972	0.001986113
58	0xbc7f6bc9	-0.015589663
59	0x3c23c7be	0.009996353
60	0x3b0a41bc	0.002109631
61	0xbc0501c6	-0.008118099
62	0x3cbabc8b	0.022794982
63	0x3c7d05d5	0.015443285
64	0x3cd54a56	0.026036423
65	0x3b9792d6	0.0046256585
66	0xbba8201c	-0.005130781
67	0xbb0dfb8f	-0.0021664833
68	0x3ca46781	0.020068886
69	0x3c409be2	0.011755915
70	0x3bcb32cc	0.006201124
71	0xbb7288eb	-0.003700788
72	0x3c2fc02c	0.01072697
73	0xbccee73a	-0.025256742
74	0xbb84ed8a	-0.004056637
75	0x3c83f841	0.016109588
76	0xbb6d2c66	-0.0036189794
77	0x3cf858e2	0.03031582
78	0xbbfca2ae	-0.0077098226
79	0x3bcb8c21	0.006211773
80	0x3c4caf56	0.012492975
81	0xbca9921b	-0.020699551
82	0x3c455933	0.0120451925
83	0x3c4f2806	0.01264382
84	0xbba82533	-0.0051313876
85	0x3cba2f17	0.022727532
86	0x3bd3a6f3	0.006459111
87	0x3c46217f	0.012092947
88	0x3cca690f	0.024708299
89	0x3c75a372	0.014992582
90	0xbcbe50ff	-0.023231981
91	0xbba0356c	-0.004889181
92	0xbc28163d	-0.010259208
93	0x3bd7235c	0.0065654945
94	0x3b071fc7	0.0020618306
95	0x3bb7e4e7	0.005612004
96	0xbbfcd1dc	-0.007715447
97	0xbb85a77a	-0.0040788027

weight f4 [12, 6]
0	0x3c573167	0.013134337
1	0x39d423d7	0.00040462494
2	0x3c7aeb90	0.015314952
3	0xbbc73545	-0.0060793483
4	0xbc9323ae	-0.01796135
5	0x3b96bf9d	0.004600479
6	0x3c253492	0.0100833345
7	0xbbd3b2af	-0.0064605097
8	0x3bc3fac3	0.005980821
9	0xbb4f948b	-0.0031674232
10	0x3c7f325b	0.0155759705
11	0x3bbc4c50	0.005746402
12	0xbac295ee	-0.0014845708
13	0x3cfe6eef	0.031058757
14	0xbce078ab	-0.027401289
15	0x3b517e12	0.0031966013
16	0xbac890ae	-0.0015301907
17	0x3c78433c	0.015152749
18	0x3cce73ba	0.025201667
19	0x3cdfad7b	0.027304402
20	0x3b079139	0.0020685925
21	0xbc9d668a	-0.019213933
22	0xbc91473c	-0.017734163
23	0x3b3c4fae	0.0028734016
24	0xb95b4107	-0.00020909692
25	0xbcbf44ed	-0.023348296
26	0xbbf4f743	-0.007475765
27	0xbb87eef3	-0.004148358
28	0xbc2e50d4	-0.010639388
29	0xbcbde0c7	-0.023178471
30	0xbc804477	-0.015657647
31	0x3bf41b5b	0.00744955
32	0xbc32c344	-0.010910813
33	0x3bcda6c9	0.006275986
34	0x3a025abe	0.0004972628
35	0x3cd01c2e	0.025404062
36	0x3b0373c5	0.0020058018
37	0x3c1e834c	0.009674858
38	0xbc93800f	-0.018005399
39	0x3c862dd8	0.016379282
40	0xbc89d86f	-0.016826836
41	0x3ccfa9f7	0.0253496
42	0xbd1baf37	-0.038008895
43	0x3c4cc353	0.012497741
44	0xbd107904	-0.03527166
45	0xbc684990	-0.014177695
46	0xbc52ba04	-0.012861732
47	0x3b9754bb	0.004618255
48	0x3bf075df	0.00733827
49	0xbb8b2530	-0.0042463765
50	0x3bb5d018	0.0055484883
51	0x3b118a16	0.002220755
52	0xbc050b40	-0.008120358
53	0x3c34e0c1	0.011039914
54	0x3b5e4a4d	0.0033918798
55	0xbc8fac0d	-0.017538095
56	0xbb28838d	-0.0025713176
57	0x3cddf73b	0.027095428
58	0x3c177681	0.009244562
59	0x3c55b4af	0.013043567
60	0x3ce9ee13	0.028555905
61	0x3aad5fdf	0.0013227424
62	0x3c0ad06b	0.008472542
63	0xbc30674e	-0.010766817
64	0xbad8ca4f	-0.0016539785
65	0x3c62d3c5	0.013844435
66	0x3c69b0a2	0.014263304
67	0xbc85777d	-0.016292328
68	0x3cd3bf16	0.025847953
69	0xbc4c186a	-0.012456993
70	0x3c4aaa0d	0.012369645
71	0xbca250b1	-0.019813867

weight f4 [12, 6]
0	0xbc406b7e	-0.011744378
1	0x3c0bfdaa	0.008544365
2	0x3ba90641	0.005158216
3	0xbbf101d9	-0.0073549566
4	0xbc67fcbe	-0.0141593795
5	0xbc5b7044	-0.013393465
6	0x3ce2a386	0.027665865
7	0xbcb2fff0	-0.021850556
8	0xbc912af7	-0.017720683
9	0x3cb53557	0.022120161
10	0x3d11878e	0.035529666
11	0xbad7100f	-0.0016407984
12	0x3c76c790	0.015062228
13	0xbb25d369	-0.0025303012
14	0x3cae972c	0.021312319
15	0x3c577dec	0.013152581
16	0xbba616ea	-0.0050686495
17	0x3cab8340	0.020936608
18	0xbcf8f4e1	-0.030390205
19	0xbc8df879	-0.017330395
20	0x3c99d30e	0.018777397
21	0xbaa20f14	-0.0012364113
22	0xbb3d1ba9	-0.0028855598
23	0xbbdcba63	-0.006736086
24	0xbc4f0499	-0.0126353735
25	0xbcb6a47a	-0.022295225
26	0x3b1019dc	0.002198807
27	0x3b17d0d4	0.0023165243
28	0xbc1adb1f	-0.009451657
29	0x3bbd9986	0.0057861237
30	0xbb8779be	-0.004134386
31	0xbb7dfc84	-0.0038755247
32	0xbc7d93f3	-0.015477168
33	0xbbc99b42	-0.0061525414
34	0xbc32919c	-0.010898974
35	0xbc2d2af2	-0.010569321
36	0x3bb116b4	0.0054043178
37	0x3c2a70ba	0.010402853
38	0x3d17b21d	0.037035096
39	0x3a973288	0.0011535445
40	0xbce08663	-0.02740783
41	0x3c035e47	0.008018083
42	0x3bdb9be4	0.006701933
43	0xbd096b00	-0.03354931
44	0x3c301610	0.010747448
45	0x3a5b6776	0.0008369604
46	0x3bcf8f95	0.006334255
47	0x3c1f55c3	0.009725037
48	0xbc0fa54a	-0.008767435
49	0xbc4f042a	-0.01263527
50	0xbbeeb57c	-0.007284818
51	0xbba545bd	-0.005043714
52	0xbbd3fa0c	-0.006469017
53	0xbc90d993	-0.017681872
54	0x3c01b3fc	0.007916447
55	0x3ce1c699	0.027560519
56	0xbc7d0d38	-0.015445046
57	0xbc8cc89f	-0.017185507
58	0xbc9855ab	-0.018595537
59	0x3bef6fe2	0.0073070386
60	0xbbc64e44	-0.0060518105
61	0x3cb0b709	0.021571653
62	0xbc25241f	-0.010079413
63	0x3ba2bfca	0.0049667107
64	0x3b58ef17	0.0033101493
65	0xbc4f0641	-0.012635768
66	0x3cbaefa1	0.022819342
67	0x3d07fd08	0.033200294
68	0xbd0daf7e	-0.03459119
69	0xbcdf0d97	-0.02722816
70	0x3c6cbeae	0.014449758
71	0x3bc32bb4	0.0059561376

weight f4 [3, 3]
0	0x3b94121d	0.004518761
1	0xbc2d4b7e	-0.010577081
2	0xbbcfd56c	-0.0063425805
3	0x39db8359	0.00041868797
4	0x3c3861b2	0.011253761
5	0xbd1d8dd6	-0.038465343
6	0xbcd917b7	-0.026500566
7	0xbc66c359	-0.01408466
8	0x3c34a454	0.011025507

weight f4 [23]
0	0x3f81bf57	1.0136517
1	0x3f7e0f1e	0.99241817
2	0x3f81b88d	1.0134445
3	0x3f80244b	1.0011076
4	0x3f7e42ae	0.99320495
5	0x3f8128ff	1.0090636
6	0x3f815618	1.0104399
7	0x3f80b00b	1.0053724
8	0x3f8006db	1.0002092
9	0x3f7f9110	0.9983072
10	0x3f7f6578	0.99764204
11	0x3f80d873	1.0066055
12	0x3f8115b1	1.0084745
13	0x3f7f9526	0.9983696
14	0x3f7f8a18	0.9982009
15	0x3f81eae5	1.0149809
16	0x3f80a810	1.0051289
17	0x3f7b11e7	0.9807419
18	0x3f7d6109	0.9897619
19	0x3f7df66f	0.9920415
20	0x3f7bd064	0.98364854
21	0x3f7a2a02	0.9772035
22	0x3f807d15	1.0038172

bias f4 [23]
0	0xbbb04de0	-0.005380377
1	0x3c08fa15	0.008360405
2	0x3c5e8076	0.013580432
3	0xbc5402b2	-0.012940096
4	0x3c79b14f	0.015240028
5	0xbc17e5d8	-0.009271108
6	0x3c8fb95b	0.017544439
7	0x3aea1b9d	0.0017861013
8	0x3c551044	0.013004366
9	0xba8047b2	-0.0009786992
10	0x3c2884b4	0.010285545
11	0x3c45192c	0.012029927
12	0xbc5d68bd	-0.013513741
13	0x3b4bec68	0.003111625
14	0xbc07706c	-0.00826655
15	0xbc982e73	-0.018576836
16	0xbcadd1d9	-0.021218227
17	0xbc575070	-0.013141736
18	0x3c43e99e	0.011957554
19	0xbc1bb613	-0.009503859
20	0x3c48652d	0.012231153
21	0x3a6fa2d9	0.00091413927
22	0x3b4f7143	0.0031653203

running_mean f4 [23]
0	0xbcc8af11	-0.02449754
1	0x3ccc48f5	0.024937132
2	0xbcbbc2bb	-0.022920003
3	0x3a8e9cb7	0.0010880445
4	0x3cb4e885	0.02208353
5	0xbc0b9397	-0.008519075
6	0xbbc99f9b	-0.0061530597
7	0xbcbf2141	-0.023331286
8	0x3c36ba26	0.01115278
9	0xbd380817	-0.04492959
10	0xbd0919c3	-0.033471834
11	0x3c73a2e0	0.014870375
12	0xbca27b02	-0.019834045
13	0x3d2c8a2d	0.042123962
14	0x3d2ae4b8	0.04172203
15	0x3b58a0c0	0.00330548
16	0x3b376e2c	0.0027989252
17	0x3d0c2e45	0.034223814
18	0xbac6e73a	-0.0015175112
19	0xbcc37799	-0.02386074
20	0xbb2d3c8e	-0.0026433798
21	0xbc833475	-0.016016224
22	0xbd55b4a9	-0.052174244

running_var f4 [23]
0	0x3f7b1068	0.9807191
1	0x3f6fc0ab	0.93653363
2	0x3f717667	0.9432129
3	0x3f7d8046	0.99023855
4	0x3f829983	1.0203098
5	0x3f7b009a	0.9804779
6	0x3f778288	0.9668355
7	0x3f696b7f	0.9117965
8	0x3f8057c3	1.0026783
9	0x3f8351b9	1.0259315
10	0x3f839ec2	1.0282824
11	0x3f74c504	0.9561312
12	0x3f787755	0.97057086
13	0x3f74461a	0.95419466
14	0x3f81e995	1.0149409
15	0x3f7ae82e	0.9801053
16	0x3f782e38	0.96945524
17	0x3f83a3ef	1.0284404
18	0x3f902edf	1.1264304
19	0x3f89330b	1.0718702
20	0x3f7e1e6e	0.9926518
21	0x3f760aed	0.9611042
22	0x3f84c62b	1.0372976

weight f4 [200, 45]
0	0xbd9bbfa6	-0.076049134
1	0x3d7dfbc3	0.062007677
2	0x3c8dfdf4	0.017333008
3	0x3c5f398e	0.013624562
4	0xbd81a9c4	-0.06331208
5	0x3ddd4e26	0.10805921
6	0xbdef3067	-0.11679154
7	0x3e166ab2	0.14689139
8	0x3d8b934c	0.06815204
9	0xbd2c0770	-0.04199928
10	0xbcdfe0e1	-0.02732891
11	0x3b0ae826	0.00211955
12	0xbd439a11	-0.04775435
13	0x3d78e7a4	0.060767785
14	0xbe1513df	-0.14558361
15	0x3d9e9767	0.077437215
16	0x3db9cbfe	0.090721115
17	0xbdfaa360	-0.122381926
18	0x3daeca4a	0.08534677
19	0x3daa1673	0.08305063
20	0xbda838ae	-0.08213936
21	0xbb9464f8	-0.004528638
22	0xbe1149f4	-0.14188367
23	0x3d8753aa	0.066077545
24	0xbbc1ca34	-0.005913997
25	0x3d0e76d6	0.0347813
26	0x3df252c4	0.118321925
27	0xbe021009	-0.1270143
28	0x3cc42901	0.023945333
29	0xbd9b7643	-0.07590916
30	0x3c168f2c	0.009189408
31	0xbd55c717	-0.05219182
32	0x3e07e4ef	0.13270925
33	0xbdb938bd	-0.09044025
34	0x3dad64de	0.084665045
35	0xbd573381	-0.052539352
36	0x3d6bd284	0.05757381
37	0x3d0c4b46	0.034251474
38	0xbdbf9569	-0.093546696
39	0x3e064876	0.13113579
40	0xbdb49113	-0.08816733
41	0xbd506aea	-0.05088321
42	0x3d8df108	0.06930739
43	0xbe1438dc	-0.14474815
44	0x3e03796c	0.12839288
45	0xbd89d38a	-0.06729801
46	0xbe0c4ff2	-0.13702372
47	0xbd4eb1a3	-0.050462376
48	0x3de95f9c	0.11395189
49	0xbd7c5dd9	-0.061612938
50	0x3dbea634	0.093090445
51	0x3dc96c62	0.098351255
52	0x3e06ef5f	0.1317725
53	0xbd01d12a	-0.031693615
54	0x3e0cec0d	0.13761921
55	0x3dd47d80	0.103755
56	0x3dba6201	0.09100724
57	0x3c8e4f05	0.017371664
58	0x3dc647f7	0.09681695
59	0x3d949738	0.07255405
60	0x3dc4fe3d	0.096188046
61	0x3cab80c1	0.020935418
62	0x3d7fcdb6	0.06245204
63	0x3daf7dfa	0.0856895
64	0x3dea9c4c	0.114555925
65	0x3e086b0b	0.13322084
66	0xbe0ef84f	-0.1396191
67	0xbde841fb	-0.1134071
68	0x3d00a2dd	0.03140532
69	0xbb273fd5	-0.0025520225
70	0x3d58e656	0.05295404
71	0xbd757e47	-0.05993488
72	0x3cd2a3c2	0.025712851
73	0xbd30e7d3	-0.043189835
74	0xbda39fd5	-0.0798947
75	0xbd9bb633	-0.07603111
76	0xbd5de766	-0.054175757
77	0xbd29b7c7	-0.04143503
78	0x3d45a255	0.048250515
79	0x3dc4994b	0.09599551
80	0x3d6eb9e7	0.05828276
81	0xbc27900a	-0.010227213
82	0x3d92ce0d	0.07168207
83	0xbc9eba4a	-0.019375939
84	0x3d983bbe	0.0743327
85	0x3e0b9276	0.13630089
86	0xbca41703	-0.020030504
87	0x3de96fb2	0.11398257
88	0xbd5a3a22	-0.053278096
89	0xbe1a0c13	-0.15043668
90	0x3dfc6c78	0.12325376
91	0x3ccd48f5	0.025059203
92	0xbd0a6448	-0.033787042
93	0x3da9a095	0.08282582
94	0xbd0873ad	-0.033313442
95	0xbda6b34b	-0.08139666
96	0xbe01dbfe	-0.12681577
97	0x3d808957	0.062761955
98	0xbd441c26	-0.047878407
99	0x3e034ff8	0.12823474
100	0xbe0cfda1	-0.13768627
101	0x3dfde4a5	0.12397126
102	0x3de08a74	0.10963908
103	0x3cb25fc4	0.02177418
104	0xbc57377c	-0.013135787
105	0xbd5e87d8	-0.05432877
106	0x3d76bdc8	0.060239583
107	0xbcd88020	-0.026428282
108	0xbd242b3a	-0.040080287
109	0xbdf68139	-0.12036366
110	0x3d7f3970	0.062310636
111	0x3d932508	0.071847975
112	0x3dec7a53	0.11546769
113	0xbe060305	-0.1308709
114	0x3d696d6b	0.056989115
115	0xbe01df41	-0.12682821
116	0xbd8fc726	-0.070204064
117	0x3da3c2df	0.07996153
118	0xbdbc3b1e	-0.09190963
119	0x3df640cb	0.12024077
120	0xbd024fe4	-0.03181447
121	0xbdec32bd	-0.11533115
122	0x3ca8caf0	0.02060458
123	0xbe091722	-0.1338773
124	0x3d01c7c8	0.031684667
125	0x3c320aad	0.010866803
126	0xbc9189db	-0.01776593
127	0xbe0f8535	-0.14015658
128	0xbdf88837	-0.12135356
129	0xbd98ce69	-0.074612446
130	0x3ceff7fc	0.029293053
131	0xbcff993c	-0.031200998
132	0x3d465bf7	0.04842755
133	0x3dc11ff0	0.0942992
134	0xbdc96144	-0.09833005
135	0x3dd9cb8c	0.106345266
136	0xbdfb9dd5	-0.122859634
137	0x3e225e7d	0.15856357
138	0x3e10d2b1	0.14142872
139	0x3d076f8b	0.03306536
140	0xbd7807ba	-0.060554244
141	0xbd10883a	-0.035286166
142	0x3e0f664e	0.1400387
143	0x3bec837d	0.007217823
144	0x3d6280ce	0.05529862
145	0x3e0e02ff	0.1386833
146	0xbbc80c09	-0.0061049503
147	0x3dcd3014	0.10018936
148	0xbdf7bdd5	-0.120967545
149	0x3e09abc9	0.13444437
150	0xbdc06ad7	-0.09395378
151	0xbe0a44cf	-0.13502811
152	0x3de960bd	0.113954045
153	0xbc56878a	-0.0130938385
154	0x3da215bc	0.07914302
155	0x3bc434cc	0.005987739
156	0x3df4ee72	0.11959542
157	0x3b04471f	0.0020183993
158	0x3de3be37	0.11120265
159	0xbda6a5ab	-0.081370674
160	0xbe049aaa	-0.12949625
161	0x3d85f193	0.06540217
162	0x3db21217	0.086948566
163	0x3d71e9b1	0.059060756
164	0xbde55be6	-0.11199169
165	0x3d4dfb15	0.05028828
166	0x3d8f6f23	0.070036195
167	0xbd7eb6cb	-0.062186044
168	0x3df38648	0.118908465
169	0xbdcea808	-0.10090643
170	0xbcd4af39	-0.025962459
171	0xbd4aae4b	-0.049482625
172	0xbe14fc48	-0.14549363
173	0x3d8c95cb	0.06864508
174	0x3b4c703b	0.0031194824
175	0xbd6875ad	-0.05675285
176	0xbd93c34e	-0.07214986
177	0xbd12067b	-0.03565071
178	0xbdf7ed71	-0.12105835
179	0xbd20b560	-0.039235473
180	0xbdff2b11	-0.12459386
181	0xbcffcea1	-0.031226458
182	0x3dd93e45	0.1060758
183	0xbe1c2a34	-0.15250474
184	0xbde64418	-0.112434566
185	0x3e205517	0.15657459
186	0xbdd20fee	-0.102569446
187	0xbdfb49ae	-0.12269913
188	0xbd298883	-0.041389953
189	0xbca35c7c	-0.01994156
190	0x3e1d9b29	0.1539122
191	0xbd8dc754	-0.069227844
192	0xbdd60478	-0.10450071
193	0xbe0a2461	-0.1349044
194	0xbce27ff1	-0.027648898
195	0x3df22db4	0.118251234
196	0x3d5ca92a	0.053872265
197	0xbd7dd74c	-0.0619729
198	0x3d8c48b3	0.06849804
199	0xbe09d372	-0.13459566
200	0xbde5b53b	-0.112162076
201	0x3c297e0d	0.010344994
202	0x3d869c82	0.0657282
203	0x3cc448c2	0.023960475
204	0x3dcedbd2	0.10100521
205	0x3ce7c57b	0.028292408
206	0x3bca555e	0.0061747273
207	0x3db23237	0.08700984
208	0xbdf557c8	-0.119796336
209	0x3dde76e2	0.10862519
210	0xbe22c787	-0.15896426
211	0xbd4b152f	-0.04958075
212	0xbded8b93	-0.11598887
213	0xbcdb624d	-0.026780272
214	0x3d7001e1	0.058595542
215	0xbd380484	-0.04492618
216	0xbda8068b	-0.08204373
217	0x3c1d7884	0.009611253
218	0x3da3bd7f	0.07995128
219	0x3cb1a85f	0.02168673
220	0xbc30ec00	-0.010798454
221	0xbcb00b88	-0.021489874
222	0x3a08e734	0.000522244
223	0xbe0516bd	-0.12996955
224	0xbdba3369	-0.09091837
225	0xbdfe6806	-0.12422185
226	0x3cbacc7c	0.022802584
227	0x3e1725c5	0.14760502
228	0xbe020091	-0.12695529
229	0xbb4a23f9	-0.0030844195
230	0xbd8957b7	-0.067061834
231	0xbd89490f	-0.06703388
232	0xbd9ec24d	-0.07751904
233	0x3d7ff429	0.06248871
234	0xbd243768	-0.040091902
235	0xbdec9285	-0.11551384
236	0xbd26831a	-0.040652372
237	0xbc2d2ebe	-0.010570226
238	0xbded4dfc	-0.1158714
239	0x3df3d282	0.119053856
240	0xbdf6af9a	-0.12045212
241	0xbe0b8938	-0.13626564
242	0x3e29c053	0.16577272
243	0xbd551468	-0.052021414
244	0xbc9a42e8	-0.018830732
245	0x3caa6623	0.020800656
246	0x3dd46065	0.10369948
247	0x3e1eb932	0.15500334
248	0x3db7c5f7	0.08973306
249	0x3d3b7bea	0.04577247
250	0xbe08060a	-0.13283554
251	0x3d82df25	0.06390218
252	0x3db00f09	0.08596618
253	0x3e207c04	0.15672308
254	0xbd229fb2	-0.03970308
255	0x3d9d4ff7	0.07681268

weight f4 [200]
0	0x3f7df961	0.99208647
1	0x3f80e5b3	1.0070099
2	0x3f7c3e31	0.98532397
3	0x3f7fb3d8	0.99883795
4	0x3f80e2ff	1.0069274
5	0x3f80b599	1.0055419
6	0x3f7f68e1	0.9976941
7	0x3f80b9cd	1.0056702
8	0x3f7f7092	0.99781144
9	0x3f80878a	1.0041363
10	0x3f7f72cd	0.9978455
11	0x3f7f554e	0.9973954
12	0x3f808d65	1.004315
13	0x3f815ee4	1.0107083
14	0x3f801965	1.000775
15	0x3f82b04e	1.0210054
16	0x3f803abd	1.0017926
17	0x3f80f6f9	1.007537
18	0x3f7ecf8a	0.9953543
19	0x3f80345a	1.0015976
20	0x3f807939	1.0036994
21	0x3f7e90ed	0.9943989
22	0x3f810a53	1.0081276
23	0x3f7d2048	0.9887738
24	0x3f7fbe9e	0.99900234
25	0x3f812262	1.0088618
26	0x3f807af7	1.0037526
27	0x3f7e29d4	0.99282575
28	0x3f7f451e	0.9971484
29	0x3f81bdba	1.0136025
30	0x3f7e4ae4	0.99333024
31	0x3f7fa90c	0.9986732
32	0x3f7ea840	0.9947548
33	0x3f82ecd3	1.0228523
34	0x3f82305b	1.0171007
35	0x3f7ed949	0.995503
36	0x3f7ef545	0.99593
37	0x3f811cd3	1.0086921
38	0x3f8199c3	1.0125049
39	0x3f7e8afa	0.9943081
40	0x3f81da6f	1.0144786
41	0x3f80ee14	1.0072656
42	0x3f7fe676	0.9996103
43	0x3f7e880e	0.9942635
44	0x3f7ffdf6	0.9999689
45	0x3f7eed6d	0.99581033
46	0x3f7ddb33	0.99162596
47	0x3f7b729d	0.9822176
48	0x3f80b1c6	1.0054252
49	0x3f7eb65e	0.9949702
50	0x3f80524e	1.0025117
51	0x3f80382f	1.0017146
52	0x3f7e7a44	0.9940531
53	0x3f7fead7	0.9996771
54	0x3f80b77e	1.0055997
55	0x3f7ed967	0.9955048
56	0x3f809a80	1.004715
57	0x3f8163ef	1.0108622
58	0x3f80009a	1.0000184
59	0x3f802c7c	1.0013576
60	0x3f80724e	1.0034883
61	0x3f7e61e1	0.993681
62	0x3f823b1f	1.0174292
63	0x3f7f8231	0.9980803
64	0x3f7f1f7f	0.99657434
65	0x3f7fc780	0.9991379
66	0x3f81368a	1.0094769
67	0x3f805235	1.0025088
68	0x3f7ff2ac	0.9997966
69	0x3f807493	1.0035576
70	0x3f812bac	1.0091453
71	0x3f80728f	1.003496
72	0x3f8046c6	1.0021598
73	0x3f7e2946	0.9928173
74	0x3f7fa0f7	0.9985499
75	0x3f809454	1.0045266
76	0x3f805a4f	1.002756
77	0x3f7f2858	0.99670935
78	0x3f810e68	1.0082521
79	0x3f806189	1.0029765
80	0x3f7fcbbf	0.99920267
81	0x3f7fbfda	0.9990212
82	0x3f806783	1.0031589
83	0x3f7ed7e5	0.9954818
84	0x3f8383a6	1.0274551
85	0x3f7cb30c	0.98710704
86	0x3f7ea2ac	0.9946697
87	0x3f7ef576	0.99593294
88	0x3f7d923d	0.99051267
89	0x3f80cf91	1.0063344
90	0x3f7db786	0.9910816
91	0x3f806fc5	1.0034109
92	0x3f7e8868	0.9942689
93	0x3f7b20e6	0.98097074
94	0x3f80e54d	1.0069977
95	0x3f7ff6e5	0.99986106
96	0x3f7f0013	0.9960949
97	0x3f80a62c	1.0050712
98	0x3f7fe393	0.99956626
99	0x3f7f0d62	0.99629796
100	0x3f80f571	1.0074903
101	0x3f7f6f6b	0.99779385
102	0x3f7dedaa	0.9919077
103	0x3f7e726f	0.9939336
104	0x3f805485	1.0025793
105	0x3f7e14de	0.9925059
106	0x3f7e2fad	0.992915
107	0x3f81258b	1.0089582
108	0x3f7ea897	0.99476
109	0x3f7e42f5	0.9932092
110	0x3f7cc275	0.9873422
111	0x3f81553f	1.010414
112	0x3f8076a3	1.0036205
113	0x3f7dacb0	0.99091625
114	0x3f7d7f34	0.9902222
115	0x3f7eea68	0.99576426
116	0x3f80649d	1.0030705
117	0x3f7e7100	0.99391174
118	0x3f7e9857	0.994512
119	0x3f8167de	1.0109823
120	0x3f7fbc5c	0.9989679
121	0x3f809f94	1.0048699
122	0x3f80c1aa	1.0059102
123	0x3f82bf61	1.0214654
124	0x3f800d60	1.0004082
125	0x3f7f6659	0.99765545
126	0x3f7f8dfc	0.99826026
127	0x3f80ffb2	1.0078032
128	0x3f7ec3ff	0.99517816
129	0x3f80c144	1.005898
130	0x3f8082af	1.0039881
131	0x3f80387e	1.001724
132	0x3f7eac41	0.9948159
133	0x3f7eff57	0.9960837
134	0x3f804ab8	1.0022802
135	0x3f7d9724	0.9905875
136	0x3f7e05f9	0.99227864
137	0x3f80d131	1.006384
138	0x3f7f052b	0.9961726
139	0x3f7fb01c	0.99878097
140	0x3f7f3010	0.9968271
141	0x3f7fae4d	0.99875337
142	0x3f7ef5df	0.9959392
143	0x3f7ef392	0.9959041
144	0x3f81058b	1.0079817
145	0x3f810c83	1.0081943
146	0x3f7d859f	0.99032015
147	0x3f8191d4	1.0122628
148	0x3f8091f1	1.0044538
149	0x3f8133fe	1.0093992
150	0x3f8071b1	1.0034696
151	0x3f7dd709	0.9915624
152	0x3f8075cd	1.003595
153	0x3f80e4b0	1.006979
154	0x3f809e6a	1.0048344
155	0x3f7f3540	0.9969063
156	0x3f804cc1	1.0023423
157	0x3f802163	1.0010189
158	0x3f7fe5cc	0.9996002
159	0x3f80874a	1.0041287
160	0x3f80a0b6	1.0049045
161	0x3f7e0336	0.9922365
162	0x3f81fd0e	1.0155351
163	0x3f81f346	1.0152366
164	0x3f8067ca	1.0031674
165	0x3f81d412	1.0142844
166	0x3f80af70	1.0053539
167	0x3f7d8aa3	0.9903967
168	0x3f7e89d6	0.9942907
169	0x3f7f3e81	0.9970475
170	0x3f80d959	1.0066329
171	0x3f80d9f8	1.0066519
172	0x3f7f2b16	0.9967512
173	0x3f80f28b	1.0074018
174	0x3f823610	1.0172749
175	0x3f7df4fe	0.99201953
176	0x3f7f6a27	0.9977135
177	0x3f7f83fb	0.9981076
178	0x3f7dfbe6	0.9921249
179	0x3f80802e	1.0039117
180	0x3f7c9500	0.98664856
181	0x3f7ed356	0.99541223
182	0x3f80bac4	1.0056996
183	0x3f804a37	1.0022649
184	0x3f814ebb	1.0102152
185	0x3f7d636b	0.98979825
186	0x3f7f9400	0.99835205
187	0x3f8184b2	1.011862
188	0x3f7fc766	0.9991363
189	0x3f7f592a	0.9974543
190	0x3f8039b7	1.0017613
191	0x3f801a3a	1.0008004
192	0x3f80e7e8	1.0070772
193	0x3f7f6913	0.99769706
194	0x3f7c93c4	0.9866297
195	0x3f80442a	1.0020802
196	0x3f7f2646	0.99667776
197	0x3f7edbeb	0.9955432
198	0x3f812501	1.0089418
199	0x3f7ce8a1	0.98792464

bias f4 [200]
0	0x3c2e5afe	0.010641811
1	0x3ac506f2	0.0015031977
2	0xbbb29d96	-0.0054509146
3	0x3c31a85f	0.010843365
4	0xbaa89bd9	-0.0012863829
5	0x3c6848ad	0.0141774835
6	0x3c062bd3	0.008189159
7	0x3baed4c0	0.0053354204
8	0x3c96c4c2	0.018404368
9	0x3c1da1b8	0.009621076
10	0x3a8c614a	0.0010710147
11	0x3a452306	0.00075201725
12	0xbc47b3be	-0.01218885
13	0x3c55d8b1	0.013052152
14	0x3b8bd54b	0.00426737
15	0x3c97cbae	0.01852974
16	0x3a0f9dfb	0.0005478558
17	0x3bebf02a	0.0072002606
18	0xbbd37cbd	-0.006454079
19	0xbaf77ed8	-0.0018882407
20	0x3c1ba227	0.009499109
21	0x3c9e1b46	0.019300114
22	0xbc043918	-0.008070253
23	0xbc34ebf1	-0.011042581
24	0x3c714bc7	0.014727539
25	0x3c5ff0f6	0.013668289
26	0xbbf7d65e	-0.0075633964
27	0x3b1c06a3	0.0023807667
28	0x3c5b0ff4	0.013370503
29	0x3c56e198	0.013115309
30	0xbbdebc52	-0.006797352
31	0x3b0e079c	0.0021672016
32	0x3cf6fdfe	0.03015041
33	0x3c8945bc	0.016756885
34	0x3c97cbd1	0.018529804
35	0xbc210ee5	-0.009830211
36	0xbc9fc220	-0.019501746
37	0xbb108d7a	-0.0022056983
38	0xbbe051ae	-0.0068456745
39	0xb7bd80ad	-2.2590475e-05
40	0x3c0d710e	0.008632911
41	0x3bee0b87	0.0072645578
42	0xbc116c58	-0.008875929
43	0x3b0f43f3	0.002186057
44	0xbc89309b	-0.01674681
45	0x3b32fec0	0.0027312487
46	0x3941e025	0.00018489415
47	0x3ab9ca5f	0.0014174691
48	0x3cec5967	0.028851224
49	0x3c1812a3	0.009281787
50	0xbc78f53a	-0.015195185
51	0xbb414650	-0.0029491372
52	0x3bd1a877	0.0063982564
53	0xbc09e2ff	-0.0084159365
54	0x3c716bf4	0.014735211
55	0x3c08dc8d	0.008353365
56	0x3c718dab	0.014743249
57	0x392ecf54	0.00016671169
58	0xbc34303e	-0.01099783
59	0x3cb1b9e7	0.02169509
60	0x3c0518c8	0.008123584
61	0xbc161055	-0.009159167
62	0xbba1f772	-0.004942828
63	0xbc9d8095	-0.019226352
64	0x3ab60e05	0.0013889676
65	0x3c1523b9	0.009102755
66	0x3c1b5706	0.009481197
67	0x3c099b5d	0.008398858
68	0x3c733d1a	0.014846111
69	0x3ca433e8	0.020044282
70	0xbb1521d9	-0.002275577
71	0xbb906398	-0.0044064038
72	0x3c093604	0.008374695
73	0x3be3d670	0.006953053
74	0x3baf3b20	0.0053476244
75	0x3902feab	0.00012492637
76	0xbae8f0a4	-0.0017771912
77	0x3c490457	0.012269101
78	0x3bc4b9eb	0.0060036085
79	0xbc00356b	-0.007825236
80	0xbbfa8dac	-0.007646283
81	0xbc616a59	-0.013758265
82	0x3b6d18e0	0.0036178157
83	0xbaf9c10f	-0.0019054728
84	0x3b46f092	0.0030355793
85	0x3aff3abe	0.0019472463
86	0x3bd81d64	0.0065953005
87	0x3c1a9553	0.009435016
88	0x3c117c05	0.008879666
89	0xba08ae50	-0.0005213963
90	0xbbd9439e	-0.006630375
91	0xbbfcbb0c	-0.0077127274
92	0x3b84fc9b	0.004058433
93	0xbba61e79	-0.0050695506
94	0xbbda8b6e	-0.0066694533
95	0xbb1f47a7	-0.0024304183
96	0x3b8f6087	0.0043755206
97	0x3c3ef00f	0.011653914
98	0x3bf39d95	0.0074345567
99	0x3c9233e0	0.017847002
100	0xbc0a6e19	-0.008449101
101	0xbb23cfdc	-0.002499572
102	0xbbbe8a61	-0.005814836
103	0x3c30ad3f	0.010783493
104	0x3c7fbfc6	0.015609687
105	0xbc30ff46	-0.010803049
106	0x3a037ac0	0.00050155446
107	0x3c94f944	0.018185265
108	0x3ca8a166	0.020584773
109	0x3c1693c5	0.009190504
110	0xbb93e4aa	-0.004513343
111	0xbca4aefa	-0.020102967
112	0x3c89297c	0.016743414
113	0xbb03a975	-0.0020090018
114	0x3c6cea81	0.014460207
115	0xbadb8f33	-0.0016751051
116	0x3c9b3913	0.018948114
117	0xbc0808f9	-0.0083029205
118	0xba84dcda	-0.001013662
119	0x3c51bec6	0.012801832
120	0xbbe5cadd	-0.0070127086
121	0x3b66f408	0.0035240669
122	0xbc148ac3	-0.0090662865
123	0x3bf0a120	0.0073434263
124	0xbc739697	-0.014867446
125	0x3a14b170	0.0005672192
126	0xbb8c420a	-0.0042803334
127	0x3b9cf72f	0.004790209
128	0x3c351ce2	0.0110542495
129	0xbbc43fc3	-0.0059890463
130	0x3c9094a2	0.017648999
131	0xbadd2cd5	-0.0016874323
132	0xbb58886b	-0.0033040296
133	0xbc0f0ea2	-0.008731516
134	0xbc6cd4e2	-0.014455052
135	0xbc15d63e	-0.009145318
136	0xbc0865be	-0.0083250385
137	0x3bf209be	0.0073864153
138	0x3afed5cf	0.0019442382
139	0xba15a3fe	-0.00057083357
140	0xbc59e074	-0.013298143
141	0x3c080bb4	0.0083035715
142	0x3ad3654b	0.001612821
143	0xbb89131e	-0.004183187
144	0x3c4463d0	0.011986688
145	0x3c037726	0.008024013
146	0xbc9eb181	-0.01937175
147	0x3ca7b253	0.020470774
148	0xbb773ba4	-0.0037724758
149	0xbba27027	-0.0049572173
150	0x3c2de156	0.010612806
151	0x3ce4f682	0.027949575
152	0x3c08c58c	0.00834788
153	0x3bfc62af	0.0077021937
154	0x3c738a47	0.014864511
155	0xbc29b814	-0.010358829
156	0x3cbc9e64	0.023024745
157	0x3be11047	0.0068683955
158	0xbb33c92f	-0.0027433147
159	0x3b83c1ba	0.0040208967
160	0xbba137a0	-0.004919961
161	0x3bbe1703	0.005801083
162	0xbc41443d	-0.011796054
163	0x3c9bee13	0.019034421
164	0xbc73b0d4	-0.014873702
165	0xba45f807	-0.00075519126
166	0x3cfd89ed	0.030949557
167	0xbbe824d3	-0.007084468
168	0xbb3afc41	-0.0028531703
169	0xbc8f6802	-0.01750565
170	0xbc10dbb4	-0.008841444
171	0x3ab64ee2	0.0013909007
172	0xbbd32316	-0.0064433916
173	0x3b9edea0	0.0048483163
174	0xbc2b2825	-0.010446583
175	0xbbdae898	-0.0066805594
176	0xbb76ca87	-0.0037657337
177	0xbbc31f62	-0.005954669
178	0x3cbd63eb	0.023118934
179	0xbb855867	-0.0040693763
180	0xbc8ed590	-0.017435819
181	0x3bab1dd7	0.005222063
182	0xbb802f51	-0.0039118906
183	0x3c961d8a	0.018324632
184	0xbaac1ff0	-0.0013132077
185	0x3c2f6a73	0.010706532
186	0x3c97d8fd	0.018536085
187	0x3c7b7ad5	0.01534911
188	0x3ab57b05	0.0013845867
189	0xbab46611	-0.0013763328
190	0xbb5f2da2	-0.00340543
191	0x3c109376	0.00882422
192	0x3c8ee2b2	0.017442081
193	0x3c1cd4a7	0.009572185
194	0xbb06db86	-0.0020577624
195	0x3c294cc3	0.010333243
196	0xbb3c145a	-0.0028698654
197	0x3bfcc4cf	0.007713891
198	0xbc7ead61	-0.015544266
199	0x3bb62018	0.005558025

running_mean f4 [200]
0	0x3e00f308	0.12592709
1	0x3e11d9d0	0.14243245
2	0x3e35f43f	0.17768954
3	0x3e386999	0.18009032
4	0x3e0618c1	0.1309538
5	0x3df83265	0.12118987
6	0x3e0c8d04	0.13725668
7	0x3e0b0a89	0.13578238
8	0x3e27126d	0.16315623
9	0x3e3abe02	0.18236545
10	0x3e200a27	0.15628873
11	0x3e460af9	0.19340123
12	0x3e392aed	0.18082781
13	0x3e238293	0.15967779
14	0x3e0ee562	0.1395469
15	0x3e25501b	0.16143839
16	0x3e37ae6c	0.1793763
17	0x3e47768e	0.19478819
18	0x3e3eb84d	0.18624993
19	0x3e251de3	0.16124682
20	0x3ddc99c8	0.10771519
21	0x3e1ba519	0.15199699
22	0x3e218761	0.15774299
23	0x3e03ebcb	0.12882917
24	0x3e5c5408	0.2151643
25	0x3e3cab53	0.1842473
26	0x3e22e729	0.15908493
27	0x3e3fb253	0.18720369
28	0x3e6161be	0.22009942
29	0x3e45db75	0.19321997
30	0x3df85e29	0.121273346
31	0x3e4d6793	0.20059042
32	0x3e015634	0.1263054
33	0x3e2ac66a	0.16677251
34	0x3e39ff0a	0.18163696
35	0x3e16a6c7	0.14712058
36	0x3e45d82d	0.19320746
37	0x3e01825a	0.12647381
38	0x3e200043	0.156251
39	0x3e3f0c4f	0.18657039
40	0x3e45c22a	0.19312349
41	0x3e0d350d	0.13789769
42	0x3e0699d9	0.13144626
43	0x3e324e57	0.17412697
44	0x3e23e0c5	0.16003712
45	0x3dc20077	0.09472745
46	0x3df2fd63	0.11864736
47	0x3e207719	0.15670432
48	0x3e2f9960	0.17148352
49	0x3e0cb1c1	0.13739683
50	0x3e2b3e3d	0.16722961
51	0x3e282cad	0.16423292
52	0x3e0b7639	0.13619317
53	0x3e4b96fc	0.19881815
54	0x3e2b65f9	0.16738118
55	0x3e13cf3c	0.14434522
56	0x3e42fda5	0.1904207
57	0x3e33ce8b	0.17559259
58	0x3e054344	0.13013941
59	0x3e315654	0.17318088
60	0x3e0b249e	0.13588187
61	0x3e2be0e8	0.16785014
62	0x3e737fe3	0.23779254
63	0x3e518c3d	0.20463653
64	0x3e0cd297	0.13752209
65	0x3e2c8e59	0.16851176
66	0x3e193e79	0.14965238
67	0x3e22dac3	0.15903763
68	0x3e3cf102	0.18451312
69	0x3e012597	0.12611996
70	0x3dfad602	0.1224785
71	0x3e550be5	0.20805319
72	0x3e32f594	0.17476493
73	0x3e48fb74	0.19627172
74	0x3defe27f	0.117131226
75	0x3e45d3ec	0.19319123
76	0x3e0f283d	0.13980193
77	0x3e5d22c5	0.21595295
78	0x3e494913	0.19656782
79	0x3e44c70e	0.19216558
80	0x3e0b846c	0.13624734
81	0x3e44d4e9	0.19221844
82	0x3e7f03c9	0.24903788
83	0x3e17b31f	0.14814423
84	0x3e1e7f77	0.15478311
85	0x3e48d9b6	0.196143
86	0x3e2a41e3	0.16626696
87	0x3e02809c	0.12744373
88	0x3e1957bb	0.14974873
89	0x3e0e1f51	0.13879134
90	0x3e0aef77	0.13567911
91	0x3e23c897	0.15994488
92	0x3e13cac2	0.14432815
93	0x3e3df9a5	0.18552263
94	0x3e296130	0.1654098
95	0x3e28e2ca	0.16492763
96	0x3e1e0b35	0.15433963
97	0x3e1d0d65	0.15337141
98	0x3e25d148	0.16193116
99	0x3e094f25	0.13409097
100	0x3dfdbb8d	0.12389288
101	0x3e246cb8	0.16057098
102	0x3e330a6f	0.17484449
103	0x3e795f44	0.24352747
104	0x3e293ee0	0.16527891
105	0x3e2ff7d6	0.17184386
106	0x3df2c8ec	0.11854729
107	0x3e802179	0.25025538
108	0x3e1339a1	0.14377452
109	0x3df0d007	0.11758428
110	0x3e224237	0.15845571
111	0x3e1deef3	0.15423183
112	0x3e018fe5	0.12652548
113	0x3e1acaf3	0.15116481
114	0x3e0c9d36	0.13731846
115	0x3e0a2c5c	0.13493484
116	0x3e31e7f2	0.17373636
117	0x3e3f6a0c	0.18692797
118	0x3e2e3ad5	0.1701463
119	0x3e0fae8b	0.14031427
120	0x3e5226ab	0.20522563
121	0x3e10bef6	0.14135346
122	0x3de2ab1d	0.110677935
123	0x3e4b6d4d	0.19865914
124	0x3e334122	0.17505315
125	0x3e335aff	0.17515181
126	0x3e40cb56	0.18827567
127	0x3e240da9	0.16020836
128	0x3e154aa7	0.14579259
129	0x3e4ce849	0.20010485
130	0x3e657c18	0.2241062
131	0x3e0ecc30	0.13945079
132	0x3e375ac8	0.17905724
133	0x3e27b8c2	0.16379073
134	0x3e41965a	0.18905011
135	0x3df43c83	0.11925604
136	0x3e4dd50c	0.20100802
137	0x3e0eba58	0.13938272
138	0x3e0fbe91	0.14037539
139	0x3e0c8b9f	0.13725136
140	0x3e0e3644	0.13887888
141	0x3e699b13	0.22813062
142	0x3e4a5c75	0.19761832
143	0x3e1daa4e	0.15396997
144	0x3e212428	0.15736449
145	0x3e3aa7ab	0.18228023
146	0x3e9c6a97	0.30550072
147	0x3e74cb88	0.23905766
148	0x3e16a28d	0.14710446
149	0x3e170270	0.14747024
150	0x3e460143	0.19336419
151	0x3e4d2edb	0.20037405
152	0x3e246dc6	0.160575
153	0x3e23d26c	0.15998238
154	0x3df17450	0.11789763
155	0x3def122a	0.116733864
156	0x3e432569	0.1905724
157	0x3e24ac0b	0.16081254
158	0x3e146bcf	0.1449425
159	0x3df5eed3	0.12008443
160	0x3df97d9b	0.121821605
161	0x3e4181de	0.18897197
162	0x3e1f66d4	0.1556657
163	0x3e39806c	0.18115395
164	0x3e48ac17	0.19596897
165	0x3e3851e8	0.17999995
166	0x3e194784	0.14968687
167	0x3e0f0e01	0.13970186
168	0x3dcf0860	0.10109019
169	0x3e2ff7b2	0.17184332
170	0x3e23f643	0.1601191
171	0x3e52b93b	0.20578472
172	0x3e487b88	0.19578373
173	0x3e4d92f5	0.20075591
174	0x3e69382d	0.22775336
175	0x3e4755b4	0.19466287
176	0x3de9bc4f	0.1141287
177	0x3e43ae62	0.1910949
178	0x3e0ccb5a	0.13749447
179	0x3e804a0b	0.2505649
180	0x3df81841	0.12114001
181	0x3e2a9094	0.16656715
182	0x3dc7e440	0.09760332
183	0x3e0af489	0.13569845
184	0x3e04c7b2	0.12966803
185	0x3e20bf6b	0.1569802
186	0x3e3454a3	0.17610411
187	0x3e3382a1	0.175303
188	0x3e2a7fc5	0.16650303
189	0x3e3ab156	0.18231711
190	0x3de25923	0.11052158
191	0x3e238e41	0.15972234
192	0x3e454b40	0.19266987
193	0x3e51e949	0.20499147
194	0x3e586546	0.21132383
195	0x3e2f0cef	0.17094778
196	0x3e50053b	0.20314495
197	0x3e2bf8f4	0.16794187
198	0x3e016172	0.12634829
199	0x3dfd4a17	0.12367647

running_var f4 [200]
0	0x3d07c33a	0.033145167
1	0x3d3c8d9f	0.046033498
2	0x3d859d78	0.065241754
3	0x3d968dd5	0.07351271
4	0x3d2f2463	0.04275931
5	0x3d05379d	0.03252374
6	0x3d33a30b	0.04385666
7	0x3d1973cd	0.03746395
8	0x3d6d9e40	0.058012247
9	0x3d8f0a6a	0.06984408
10	0x3d657525	0.05601992
11	0x3dad9b69	0.08476908
12	0x3d8ac6b2	0.067761794
13	0x3d7f71da	0.062364437
14	0x3d304ff3	0.043044996
15	0x3d5f1f75	0.05447336
16	0x3d92b0e4	0.071626455
17	0x3d850aed	0.064962246
18	0x3d98a4aa	0.07453282
19	0x3d60ec95	0.054913122
20	0x3cc55ddb	0.024092605
21	0x3d5dc3a5	0.05414166
22	0x3d58d92e	0.052941494
23	0x3d13b2b0	0.03605908
24	0x3dbc1abc	0.09184787
25	0x3d9e1791	0.07719339
26	0x3d7f1e01	0.062284473
27	0x3d9b5bc1	0.0758586
28	0x3dbecfc9	0.093169756
29	0x3db4bdba	0.0882525
30	0x3d047af1	0.03234381
31	0x3db84b49	0.089987345
32	0x3d0c44ba	0.03424523
33	0x3d72f4e6	0.059315585
34	0x3d883ebf	0.06652593
35	0x3d51a0a4	0.05117859
36	0x3db0819c	0.08618471
37	0x3d10a714	0.035315588
38	0x3d518d8b	0.051160377
39	0x3db2884c	0.08717403
40	0x3da2bfe5	0.07946757
41	0x3d2575ea	0.040395655
42	0x3d1d3a58	0.03838572
43	0x3d837e9c	0.06420633
44	0x3d63eed9	0.055647705
45	0x3cad486b	0.021152696
46	0x3d00048a	0.03125433
47	0x3d53ba3b	0.051691275
48	0x3d7d771b	0.061881166
49	0x3d237aeb	0.039912146
50	0x3d6a111e	0.05714523
51	0x3d5c0bad	0.053722072
52	0x3d197329	0.03746334
53	0x3da82bdf	0.08211493
54	0x3d7a2432	0.061069675
55	0x3d2bdac3	0.041956674
56	0x3d9ef943	0.07762387
57	0x3d9cc23d	0.076542355
58	0x3d19ab32	0.03751678
59	0x3d84013a	0.064455464
60	0x3d1a30f6	0.03764435
61	0x3d7a6a0e	0.061136298
62	0x3e098fd0	0.13433766
63	0x3db7fa1d	0.08983252
64	0x3d2180b5	0.039429385
65	0x3d8be437	0.06830638
66	0x3d44a014	0.048004225
67	0x3d6becc6	0.05759885
68	0x3d9db805	0.077011146
69	0x3cfbb767	0.030727101
70	0x3d02e27c	0.031954274
71	0x3dddfad7	0.108388595
72	0x3d855981	0.06511212
73	0x3d933035	0.07186929
74	0x3cf886be	0.030337688
75	0x3da4d122	0.080477014
76	0x3d3e4663	0.046453845
77	0x3ddbffa0	0.10742116
78	0x3da777b3	0.08177128
79	0x3d98cf00	0.07461357
80	0x3d1dff15	0.038573343
81	0x3dac9847	0.08427482
82	0x3deee287	0.116643004
83	0x3d5dc0fc	0.054139122
84	0x3d5204f4	0.051274255
85	0x3db3cc7d	0.087792374
86	0x3d83c810	0.06434643
87	0x3d18af3f	0.037276503
88	0x3d5266d0	0.05136758
89	0x3d1d5bd4	0.038417652
90	0x3d1b614d	0.03793459
91	0x3d543e8e	0.05181747
92	0x3d29c216	0.04144486
93	0x3da5225c	0.08063194
94	0x3d80373d	0.06260536
95	0x3d7ead08	0.062176734
96	0x3d59ed87	0.05320504
97	0x3d78c982	0.060739048
98	0x3d6d7441	0.057972196
99	0x3d4792a7	0.048723843
100	0x3d0c6b8c	0.034282252
101	0x3d57b8c2	0.052666433
102	0x3d775b41	0.06038976
103	0x3e05f2ab	0.13080852
104	0x3d7e0c87	0.062023666
105	0x3d827715	0.06370369
106	0x3cfe5657	0.03104703
107	0x3df6e22a	0.12054856
108	0x3d3658c8	0.044518262
109	0x3cebe012	0.028793368
110	0x3d56685c	0.05234562
111	0x3d4bf31d	0.049792398
112	0x3d202f7d	0.03910779
113	0x3d3bb48a	0.045826472
114	0x3d1b1d07	0.03786948
115	0x3d257190	0.040391505
116	0x3d85d82c	0.06535372
117	0x3db56d00	0.08858681
118	0x3d90f6ce	0.07078324
119	0x3d2143a6	0.039371155
120	0x3dbd6355	0.09247462
121	0x3d524af1	0.051341
122	0x3cdc7bb3	0.026914453
123	0x3d9ad487	0.075600676
124	0x3d971a5e	0.07378076
125	0x3d82bb0c	0.063833326
126	0x3da7d999	0.081958
127	0x3d58fb3c	0.05297397
128	0x3d4a3999	0.049371336
129	0x3db7d55e	0.089762434
130	0x3ddcd3c7	0.10782581
131	0x3d406e03	0.046979915
132	0x3d8c80be	0.06860493
133	0x3d7d45e0	0.061834216
134	0x3dace985	0.08442978
135	0x3cf7b4ea	0.030237634
136	0x3de3a609	0.11115653
137	0x3d2b2457	0.041782703
138	0x3d2abec5	0.04168584
139	0x3d35fc36	0.04442998
140	0x3d3164b8	0.043308944
141	0x3de41600	0.11137009
142	0x3db15747	0.08659225
143	0x3d4cf250	0.050035775
144	0x3d5694d0	0.052388012
145	0x3d874db8	0.066066206
146	0x3e69b2fd	0.22822185
147	0x3e0a0350	0.13477826
148	0x3d46b2ea	0.04851047
149	0x3d374c9f	0.044750806
150	0x3d8fad87	0.070155196
151	0x3da1e203	0.079044364
152	0x3d6096f6	0.054831468
153	0x3d5a183b	0.053245764
154	0x3d056bcf	0.032573517
155	0x3cea2b9c	0.028585248
156	0x3daf0360	0.085455656
157	0x3d6d933b	0.058001738
158	0x3d35dab3	0.04439802
159	0x3d06b36d	0.032885958
160	0x3d03d8f1	0.032189313
161	0x3db269e2	0.08711602
162	0x3d5b2638	0.053503245
163	0x3dace86b	0.08442768
164	0x3d9ec5db	0.07752582
165	0x3d886260	0.066593885
166	0x3d4f5e25	0.050626893
167	0x3d3b02c1	0.045656923
168	0x3cb3b6a8	0.021937683
169	0x3d7d59b7	0.061853137
170	0x3d694cb1	0.056957904
171	0x3de03272	0.10947122
172	0x3daf79f6	0.08568184
173	0x3db2ba65	0.08726958
174	0x3dd5d822	0.10441615
175	0x3da5bcde	0.08092664
176	0x3ce32d43	0.027731543
177	0x3d94142d	0.07230411
178	0x3d2eb6c9	0.042654786
179	0x3e18631e	0.1488156
180	0x3d0afbe4	0.033931628
181	0x3d61821f	0.055055734
182	0x3ca162a1	0.01970035
183	0x3d28607c	0.04110764
184	0x3d012556	0.031529747
185	0x3d803ef3	0.062620066
186	0x3d8a12f4	0.06741896
187	0x3d829621	0.06376291
188	0x3d722532	0.059117503
189	0x3d9fe356	0.07807033
190	0x3cdee4c1	0.027208688
191	0x3d58e65b	0.05295406
192	0x3db07b53	0.08617272
193	0x3dbf3551	0.09336341
194	0x3ddf9172	0.10916413
195	0x3d8859be	0.06657742
196	0x3ddde8ca	0.108354166
197	0x3d916b46	0.07100539
198	0x3d023e67	0.031797793
199	0x3cf9edc5	0.030508885

weight f4 [100, 200]
0	0x3c044f11	0.0080754915
1	0x3d2729f1	0.040811483
2	0xbd4ba322	-0.049716122
3	0x3cf91994	0.030407704
4	0xbd85015a	-0.064943984
5	0x3d83889e	0.06422542
6	0xbd38cdad	-0.045118023
7	0x3cf5b162	0.02999181
8	0x3d59d744	0.05318381
9	0xbd89e4b3	-0.06733074
10	0x3d9bbe43	0.07604649
11	0xbd56046a	-0.052250303
12	0xbcf2e1e9	-0.029648738
13	0x3d704214	0.058656767
14	0xbd4de24d	-0.050264645
15	0x3b54a8ed	0.003244932
16	0xbd2946cf	-0.041327294
17	0x3d5a28c4	0.053261533
18	0xba392231	-0.0007062285
19	0xbcc53dae	-0.024077263
20	0xbd62c759	-0.055365894
21	0x3d791e28	0.060819775
22	0xbd18c679	-0.037298653
23	0xbd269a27	-0.040674355
24	0x3cfe9d4e	0.031080868
25	0x3ccc59f2	0.024945233
26	0x3d40e2c9	0.04709128
27	0xbd316736	-0.04331132
28	0xbcbe1bc7	-0.023206605
29	0x3d2909f1	0.041269246
30	0x3b0d7804	0.0021586427
31	0xbce4e34a	-0.027940411
32	0x3d06bd5f	0.032895442
33	0xbd3b6b15	-0.04575642
34	0x3d975006	0.0738831
35	0xbc96961a	-0.01838212
36	0xbd8c04c4	-0.068368465
37	0x3d91f6fa	0.07127185
38	0xbc06d45b	-0.00822934
39	0x3d29e067	0.041473772
40	0xbc38c109	-0.011276492
41	0x3d97d35c	0.074133605
42	0xbbcad3f5	-0.006189818
43	0xbc84e19c	-0.01622086
44	0xbd71e43b	-0.05905555
45	0xbd286f0c	-0.041121528
46	0x3d22bb58	0.039729446
47	0x3cd964be	0.026537295
48	0x3d750b12	0.05982501
49	0x3be365ec	0.0069396403
50	0xbc62327f	-0.0138059845
51	0xbac4a1a5	-0.0015001787
52	0x3c1f8b3d	0.009737787
53	0xba9c5ad0	-0.001192892
54	0x3d968ed4	0.07351461
55	0x3d7bbcee	0.061459474
56	0xbd9923a9	-0.07477505
57	0xbd8ec02a	-0.06970246
58	0xbd24c5d5	-0.04022773
59	0x3d5802ac	0.052736923
60	0x3bb1cb58	0.005425852
61	0x3bba5059	0.0056858477
62	0x3d5ebde2	0.054380305
63	0xbd8df492	-0.06931414
64	0xbd4d260c	-0.050085112
65	0xbb5a32ca	-0.0033294433
66	0x3d9e6009	0.07733161
67	0xbbb1893f	-0.0054179723
68	0x3d0ef3ce	0.03490048
69	0x3d1fc1ec	0.039003298
70	0x3ce018c6	0.027355563
71	0x3d555fe5	0.052093405
72	0xbce99370	-0.028512686
73	0xbd57c30e	-0.052676253
74	0xbd1030bf	-0.035202738
75	0x3b8ec856	0.004357378
76	0x3d790bea	0.060802378
77	0xbd46e6b6	-0.048559867
78	0x3cff3c8c	0.0311568
79	0x3d4c2f52	0.049849816
80	0x3d05b8ad	0.032646824
81	0x3ce26163	0.027634328
82	0x3c58d7fa	0.013235087
83	0xbae1580f	-0.0017192381
84	0x3d0e0353	0.03467114
85	0xbc68fe34	-0.014220763
86	0x3c89fa4c	0.016842984
87	0xbd12e311	-0.03586108
88	0xbccc8d8a	-0.024969835
89	0x3cc9b70f	0.024623422
90	0x3cb6eaec	0.022328816
91	0xbd8008d5	-0.062516846
92	0x3d933e43	0.0718961
93	0xbd0a7390	-0.033801615
94	0xbd1eb3da	-0.03874574
95	0x3d31471b	0.043280702
96	0x3ba8e8e6	0.005154717
97	0x3ce7ece2	0.028311197
98	0x3d2a8a2a	0.04163567
99	0x3d47e70b	0.048804324
100	0xbd92b887	-0.07164102
101	0x3bad5c64	0.005290555
102	0x3d298462	0.041386016
103	0xbd9a9596	-0.075480625
104	0x3ce9a4b8	0.028520927
105	0xbd8a091f	-0.06740021
106	0xbc7e604c	-0.015525889
107	0x3cd0ec12	0.025503192
108	0xbca6c489	-0.020357387
109	0xbd8bf305	-0.06833462
110	0xbd164ce2	-0.036694415
111	0x3d03436a	0.032046713
112	0x3c8c7e2e	0.01715001
113	0x3d46b861	0.04851568
114	0xbd130978	-0.035897702
115	0x3cb37bca	0.021909613
116	0x3d967df3	0.07348242
117	0x3cd907a2	0.026492897
118	0xbc4ac972	-0.01237713
119	0x3cfe25ef	0.031023948
120	0xbd60a3b1	-0.05484361
121	0xbd6467e2	-0.055763133
122	0xbd2a7629	-0.041616593
123	0x3cba1cc2	0.02271879
124	0xbd73a04d	-0.059479047
125	0xbd1e74ae	-0.038685493
126	0x3b60a31b	0.0034276906
127	0x3d05a763	0.032630336
128	0x3c77883e	0.015108166
129	0xbcfee4ad	-0.0311149
130	0xbd1a3117	-0.037644472
131	0x3ca18bc4	0.019719966
132	0x3d8d724c	0.06906566
133	0x3ce80a89	0.028325336
134	0xbcdee546	-0.027208935
135	0xbda05807	-0.0782929
136	0xbd3b83af	-0.04577988
137	0x3d8c4801	0.06849671
138	0xbd22f79b	-0.039786916
139	0xbd4aa25c	-0.049471244
140	0x3d3c496c	0.045968458
141	0xbd3a8aeb	-0.04554264
142	0x3d84d097	0.06485098
143	0x3d990328	0.07471305
144	0xbd49a398	-0.04922828
145	0x3cdaf240	0.026726842
146	0xbd986fb8	-0.07443184
147	0xbcb04830	-0.021518797
148	0x3d8aa939	0.06770558
149	0x3d97e36e	0.07416426
150	0xbd19851a	-0.03748045
151	0xbbadb452	-0.005301037
152	0x3d100289	0.035158668
153	0xbbbb0b98	-0.005708169
154	0x3d20b87e	0.039238445
155	0x3d65cabf	0.056101557
156	0x3d39c777	0.04535624
157	0x3cb5c320	0.02218777
158	0xbbf582c9	-0.0074923974
159	0xbd0432ab	-0.032274883
160	0x3c953679	0.018214451
161	0xbcdfe6b2	-0.027331684
162	0xbd63e4d2	-0.055638142
163	0xbc839cdc	-0.016066007
164	0xbd1ef8aa	-0.038811363
165	0xbc9ac736	-0.01889382
166	0xbc4959c3	-0.012289467
167	0x3cba59fc	0.022747986
168	0x3c3156fd	0.010823962
169	0xbcbe12d8	-0.023202345
170	0xbd8acd84	-0.0677748
171	0xbbdb0135	-0.0066834935
172	0xbcd95337	-0.026528938
173	0x3d579266	0.05262985
174	0x3cae3a88	0.021268144
175	0x3be9bd74	0.0071331803
176	0x3cfc7999	0.030819701
177	0x3d6cc868	0.05780831
178	0xbd68aa71	-0.05680317
179	0xbd6cb120	-0.057786107
180	0x3d7ed3f3	0.06221385
181	0xbcbf2737	-0.023334129
182	0x3d0839da	0.033258297
183	0xbd96bf86	-0.07360749
184	0x3d8a310a	0.06747635
185	0x3d146205	0.03622629
186	0xbd54abe3	-0.051921736
187	0x3d62847b	0.055302124
188	0x3ce712c2	0.028207187
189	0xbd2a4f4f	-0.04157954
190	0x3d4cca91	0.04999787
191	0xbcf4ee3d	-0.029898757
192	0x3d1ad260	0.037798285
193	0x3c32c75f	0.010911792
194	0xbc7ae090	-0.015312329
195	0xbaeb09d6	-0.0017932008
196	0x3d380503	0.044926655
197	0x3cf05b99	0.029340552
198	0x3cd6b6a4	0.026210137
199	0xbd23e6d1	-0.040015046
200	0xbd2933d0	-0.041309178
201	0x3d5f4d20	0.05451691
202	0x3d0a9a28	0.03383842
203	0x3d1e8cf4	0.038708642
204	0x3d8133ef	0.06308734
205	0x3d2a2a76	0.0415444
206	0x3b3a625c	0.0028439974
207	0xbcdda66e	-0.027056899
208	0xbc0578cf	-0.008146479
209	0x3cac7fcc	0.021057032
210	0xba8e5e26	-0.0010861799
211	0xbd8ca5ee	-0.06867586
212	0x3c04821b	0.00808766
213	0x3c4293b1	0.011876033
214	0xbb993aed	-0.004676214
215	0xbd31d322	-0.043414243
216	0x3cdc2737	0.026874168
217	0xbd8603f0	-0.0654372
218	0x3b3a9780	0.0028471649
219	0x3d5e6efe	0.05430507
220	0x3cb048fe	0.02151918
221	0x3d0724b7	0.032994
222	0xbab5ef92	-0.0013880602
223	0xbd0e25d5	-0.03470405
224	0x3cec077e	0.028812166
225	0x3d91c81a	0.071182445
226	0xbd5447c8	-0.05182627
227	0xbd96ab94	-0.07356945
228	0xbcae2d65	-0.02126188
229	0x3c0d26c9	0.008615204
230	0xbd3110c3	-0.043228876
231	0xbc9ae029	-0.018905716
232	0x3d2bf35c	0.041980132
233	0xbd389450	-0.045063317
234	0xbc937840	-0.018001676
235	0x3d0d15f7	0.034444775
236	0xbd0dd096	-0.03462275
237	0xbd9355c5	-0.071940936
238	0xbcfbc80a	-0.030735034
239	0x3ce12994	0.027485646
240	0xbd6d90f2	-0.05799956
241	0xbbc9840a	-0.0061497735
242	0xbd55da16	-0.052209936
243	0xbd36843f	-0.044559713
244	0x3ce289a8	0.02765353
245	0xbdb2becb	-0.08727797
246	0x3d90f2cf	0.07077562
247	0x3d2397f2	0.03993983
248	0x3aa22589	0.0012370805
249	0xbd7c10bb	-0.061539393
250	0x3b767a47	0.0037609504
251	0x3d27dde3	0.040983092
252	0xbc87d57b	-0.016581288
253	0xbd720d3f	-0.059094664
254	0x3d433214	0.04765518
255	0x3c757ae5	0.014982914

weight f4 [100]
0	0x3f7b4216	0.98147714
1	0x3f7ae796	0.9800962
2	0x3f7c8a42	0.98648465
3	0x3f7b64e9	0.9820085
4	0x3f7cf3d8	0.98809576
5	0x3f7e0000	0.9921875
6	0x3f7d2b04	0.9889376
7	0x3f7ccf14	0.98753476
8	0x3f7d3393	0.9890682
9	0x3f7a7272	0.9783088
10	0x3f7dfb15	0.99211246
11	0x3f7b27a7	0.9810738
12	0x3f7e9500	0.99446106
13	0x3f79e796	0.97619
14	0x3f7bd338	0.9836917
15	0x3f7c1252	0.98465455
16	0x3f7e0ab9	0.9923511
17	0x3f7e0de3	0.9923994
18	0x3f7ccc62	0.98749363
19	0x3f7b9027	0.98266834
20	0x3f7d6046	0.98975027
21	0x3f7a338d	0.9773491
22	0x3f7cb1d2	0.9870883
23	0x3f7ad0f6	0.979751
24	0x3f7eff07	0.9960789
25	0x3f7d6821	0.98987013
26	0x3f7b504a	0.98169386
27	0x3f7c074b	0.9844863
28	0x3f7d1fa1	0.98876387
29	0x3f7a2e0e	0.97726524
30	0x3f7c4703	0.98545855
31	0x3f7e490e	0.9933022
32	0x3f7c4665	0.98544914
33	0x3f7dfd69	0.992148
34	0x3f7d35be	0.9891013
35	0x3f7af20a	0.9802557
36	0x3f7f5ce3	0.9975111
37	0x3f7cfa48	0.988194
38	0x3f7d2c5b	0.98895806
39	0x3f7b8558	0.9825034
40	0x3f7c980e	0.9866952
41	0x3f7bd344	0.9836924
42	0x3f7df962	0.9920865
43	0x3f7d8976	0.99037874
44	0x3f7ce676	0.98789155
45	0x3f7ea4c3	0.99470156
46	0x3f7d1d7c	0.98873115
47	0x3f7b6236	0.98196733
48	0x3f7c39de	0.985258
49	0x3f7a0b2a	0.97673285
50	0x3f7b103c	0.98071647
51	0x3f7c9d36	0.98677385
52	0x3f7b70ee	0.9821919
53	0x3f7a9199	0.97878414
54	0x3f7a1fc9	0.9770475
55	0x3f799f63	0.9750883
56	0x3f7d2d97	0.9889769
57	0x3f7c6efb	0.9860684
58	0x3f7e58d8	0.99354315
59	0x3f7a6e2e	0.9782437
60	0x3f7d5279	0.9895397
61	0x3f7c6072	0.98584664
62	0x3f7b7ac3	0.98234195
63	0x3f7edd6a	0.995566
64	0x3f7d1e11	0.98874
65	0x3f7dcc1e	0.99139583
66	0x3f7b1113	0.9807293
67	0x3f7e5a6d	0.9935673
68	0x3f7c078c	0.98449016
69	0x3f7c950c	0.9866493
70	0x3f7c6cf3	0.98603743
71	0x3f7bf805	0.9842532
72	0x3f7b3a0a	0.98135436
73	0x3f7d7f16	0.9902204
74	0x3f7ddac3	0.9916193
75	0x3f7c56f1	0.9857016
76	0x3f7c9806	0.9866947
77	0x3f7e5b07	0.99357647
78	0x3f79e502	0.97615063
79	0x3f7d6cd0	0.9899416
80	0x3f7ed7b0	0.99547863
81	0x3f7b9890	0.98279667
82	0x3f7c922e	0.9866055
83	0x3f7b8f94	0.9826596
84	0x3f79cfc0	0.97582626
85	0x3f7b55a9	0.9817758
86	0x3f7a7068	0.9782777
87	0x3f7b739f	0.982233
88	0x3f7a53d3	0.97784156
89	0x3f7e47f8	0.99328566
90	0x3f7a2908	0.9771886
91	0x3f7cf441	0.988102
92	0x3f7ce3b3	0.9878494
93	0x3f7e8776	0.99425447
94	0x3f7cf496	0.9881071
95	0x3f7bf596	0.9842161
96	0x3f79e3f6	0.97613466
97	0x3f7a1601	0.97689825
98	0x3f7dab4e	0.99089515
99	0x3f7ca59e	0.9869021

bias f4 [100]
0	0xbdacf280	-0.08444691
1	0xbda85339	-0.082189985
2	0x3daf481d	0.085586764
3	0x3d897844	0.06712392
4	0xbdb08081	-0.0861826
5	0x3db81d18	0.08989924
6	0x3dc4b165	0.09604148
7	0xbdb0f644	-0.086407214
8	0xbdb28fab	-0.08718809
9	0x3daaaa7b	0.08333298
10	0x3db9037f	0.0903387
11	0x3dae16ba	0.085004285
12	0xbdcc8b62	-0.09987523
13	0xbdfab315	-0.122411884
14	0x3db417fd	0.08793638
15	0xbdb23c06	-0.08702855
16	0xbdc64be6	-0.09682445
17	0x3db8639d	0.09003375
18	0x3dbc2134	0.091860205
19	0xbdfb2aef	-0.12264048
20	0xbdb223bf	-0.08698224
21	0xbe204926	-0.15652904
22	0xbdad78cc	-0.08470306
23	0xbdae3454	-0.085060745
24	0x3dd2dcf6	0.10296051
25	0x3db5a9b8	0.08870262
26	0xbdb11bc7	-0.08647876
27	0x3dbf422b	0.093387924
28	0xbdb0d817	-0.08634966
29	0x3dad8a80	0.084736824
30	0xbdae09e8	-0.08497983
31	0xbdb3eabe	-0.08785008
32	0x3db2e468	0.08734971
33	0xbdba4780	-0.09095669
34	0x3dba5bba	0.09099527
35	0xbdaa8275	-0.08325664
36	0xbdbe2c9d	-0.09285853
37	0x3dba01ba	0.090823606
38	0x3dc6afe2	0.09701516
39	0xbdacacf3	-0.08431425
40	0xbdaca5c5	-0.084300555
41	0xbdaabfb0	-0.08337343
42	0xbdb0c43c	-0.08631179
43	0x3dd75628	0.1051448
44	0xbdd65fc2	-0.10467483
45	0xbdb89ec6	-0.09014659
46	0xbdb1831f	-0.086675875
47	0xbdadd588	-0.084879935
48	0x3db3582b	0.08757051
49	0xbda2d186	-0.0795012
50	0xbda95396	-0.08267896
51	0x3db4876d	0.08814893
52	0x3db5e431	0.08881415
53	0x3d22d798	0.039756387
54	0x3dae377d	0.08506677
55	0x3dac2210	0.084049344
56	0x3db3ed02	0.0878544
57	0x3db3aa39	0.08772702
58	0x3db717df	0.089401
59	0x3daddceb	0.084894024
60	0xbdb03bed	-0.0860518
61	0x3dabcb1e	0.08388351
62	0x3db2ef42	0.08737041
63	0x3ddfdb3d	0.10930488
64	0xbddf914e	-0.109163865
65	0x3e026cb9	0.12736787
66	0x3dadf739	0.084944196
67	0xbdb8caae	-0.09023033
68	0x3db2e691	0.08735383
69	0xbdb1ff4c	-0.08691272
70	0x3db9d515	0.09073845
71	0xbda7a1a4	-0.081851274
72	0xbda94e03	-0.08266833
73	0xbdb5221f	-0.08844399
74	0xbdb3f943	-0.08787777
75	0xbde3c9bf	-0.111224644
76	0xbdacfb0a	-0.084463194
77	0xbdc0600b	-0.09393319
78	0x3dac0542	0.0839944
79	0x3db72702	0.08942987
80	0xbdb5788b	-0.08860882
81	0x3db1096f	0.086443774
82	0xbdb63e7f	-0.08898639
83	0x3dae3a7e	0.0850725
84	0xbd9dd468	-0.07706529
85	0xbda702e4	-0.08154848
86	0xbe14d2b2	-0.14533499
87	0xbdd74aac	-0.105122894
88	0xbddfe54a	-0.10932405
89	0xbdbf95cd	-0.09354744
90	0x3dadb600	0.08481979
91	0x3dbb64b8	0.0915007
92	0x3db78e9f	0.0896275
93	0x3db74189	0.08948047
94	0xbdadfdc6	-0.08495669
95	0xbdbf0b1d	-0.093282916
96	0xbdffb9cf	-0.12486612
97	0xbda8ce45	-0.08242468
98	0x3db53d38	0.08849567
99	0x3db42b1b	0.08797284
